sign_model_uint8_3.tflite (tflite, 181472 bytes, 5 tensors)

tfl.pseudo_qconst1 i1 [10, 64]
000000 fc 18 db 1a ad 31 08 01 aa 36 ee d2 1f d4 15 b8
       -4 24 -37 26 -83 49 8 1 -86 54 -18 -46 31 -44 21 -72
000010 20 51 0d 81 1d fb d8 2e e7 d5 da 29 30 df 07 f0
       32 81 13 -127 29 -5 -40 46 -25 -43 -38 41 48 -33 7 -16
000020 44 e8 cc f8 fd 20 1e ef d6 11 91 07 fe cb 46 ec
       68 -24 -52 -8 -3 32 30 -17 -42 17 -111 7 -2 -53 70 -20
000030 b9 e6 46 d3 7b d5 41 d2 f9 14 df a6 e8 04 c8 1e
       -71 -26 70 -45 123 -43 65 -46 -7 20 -33 -90 -24 4 -56 30
000040 fd 52 b5 c4 e7 2f fa df 91 4d 40 38 55 e4 2e f5
       -3 82 -75 -60 -25 47 -6 -33 -111 77 64 56 85 -28 46 -11
000050 de 15 f6 f4 60 c1 31 ca 29 fc 05 d0 44 27 cc 19
       -34 21 -10 -12 96 -63 49 -54 41 -4 5 -48 68 39 -52 25
000060 ca a4 ca c8 8b 27 3c 24 89 22 29 e5 d3 15 f9 18
       -54 -92 -54 -56 -117 39 60 36 -119 34 41 -27 -45 21 -7 24
000070 1b 15 b9 28 92 03 29 df d2 b1 27 81 eb e0 c8 28
       27 21 -71 40 -110 3 41 -33 -46 -79 39 -127 -21 -32 -56 40
000080 13 fc b0 34 14 1e de 28 ae d7 2e 1a 16 df 19 e5
       19 -4 -80 52 20 30 -34 40 -82 -41 46 26 22 -33 25 -27
000090 01 c1 d2 40 e2 ad d2 e0 dd d7 fe 17 12 50 02 d7
       1 -63 -46 64 -30 -83 -46 -32 -35 -41 -2 23 18 80 2 -41
0000a0 e9 d8 ec 07 0b 29 e9 33 df dc 9b 9f 14 2e 81 25
       -23 -40 -20 7 11 41 -23 51 -33 -36 -101 -97 20 46 -127 37
0000b0 0f e1 10 01 e0 ec 1c e9 29 cc 31 d6 f7 db fa 16
       15 -31 16 1 -32 -20 28 -23 41 -52 49 -42 -9 -37 -6 22
0000c0 1e c3 89 df 1c e9 d1 1b d8 dd 5a b2 81 e1 17 9a
       30 -61 -119 -33 28 -23 -47 27 -40 -35 90 -78 -127 -31 23 -102
0000d0 2a 03 fa 48 e2 02 e7 9f f1 ce 51 fc e2 41 13 08
       42 3 -6 72 -30 2 -25 -97 -15 -50 81 -4 -30 65 19 8
0000e0 23 fb d0 30 ff e7 2a e7 f1 32 4d fc 0f 54 a2 f3
       35 -5 -48 48 -1 -25 42 -25 -15 50 77 -4 15 84 -94 -13
0000f0 0f ed b4 20 1b 07 f8 06 17 e5 01 dc e1 f9 31 32
       15 -19 -76 32 27 7 -8 6 23 -27 1 -36 -31 -7 49 50

tfl.pseudo_qconst3 i1 [64, 2304]
000000 23 c1 20 3c b8 17 14 c1 de c9 9c fd dd 36 32 d5
       35 -63 32 60 -72 23 20 -63 -34 -55 -100 -3 -35 54 50 -43
000010 c5 b5 07 a3 b3 06 e9 f7 f6 10 c7 ec db 26 2f c4
       -59 -75 7 -93 -77 6 -23 -9 -10 16 -57 -20 -37 38 47 -60
000020 1b bd 0d fa d4 2b 34 b9 97 fe b5 df fa 1f e7 01
       27 -67 13 -6 -44 43 52 -71 -105 -2 -75 -33 -6 31 -25 1
000030 b1 0d d3 c3 0a c3 ec b8 2c ab e4 d6 2a a5 c6 ce
       -79 13 -45 -61 10 -61 -20 -72 44 -85 -28 -42 42 -91 -58 -50
000040 c4 b0 02 10 12 c7 c4 c9 ed 02 d1 fa 14 c6 ef a6
       -60 -80 2 16 18 -57 -60 -55 -19 2 -47 -6 20 -58 -17 -90
000050 ed a5 c4 f5 fa f6 98 b7 f0 de 14 0a cd c6 ee 06
       -19 -91 -60 -11 -6 -10 -104 -73 -16 -34 20 10 -51 -58 -18 6
000060 df d6 d6 c2 03 d7 2c b1 06 c9 ba c9 25 c6 00 dc
       -33 -42 -42 -62 3 -41 44 -79 6 -55 -70 -55 37 -58 0 -36
000070 e0 43 aa 30 df e4 d7 fe 0f ed f8 1e c5 07 ff 39
       -32 67 -86 48 -33 -28 -41 -2 15 -19 -8 30 -59 7 -1 57
000080 fc e2 c0 36 00 ca 0a 27 19 17 d0 e0 bc c2 d4 d7
       -4 -30 -64 54 0 -54 10 39 25 23 -48 -32 -68 -62 -44 -41
000090 0a 0a 3c b7 f6 29 2f cd 27 f4 f7 fa 0b 3a e3 a2
       10 10 60 -73 -10 41 47 -51 39 -12 -9 -6 11 58 -29 -94
0000a0 0c bd 8b 3f 03 dc 36 f6 03 13 d5 ef fa 0b c2 d9
       12 -67 -117 63 3 -36 54 -10 3 19 -43 -17 -6 11 -62 -39
0000b0 ed c3 20 da 24 ce c7 f9 e4 16 0c ee e1 29 2b 23
       -19 -61 32 -38 36 -50 -57 -7 -28 22 12 -18 -31 41 43 35
0000c0 c9 18 c3 be 1d 04 cb e8 0d d9 d1 07 35 1c 9f fb
       -55 24 -61 -66 29 4 -53 -24 13 -39 -47 7 53 28 -97 -5
0000d0 08 e5 10 0b c6 da cd d7 d1 e0 0b 06 c6 1d 36 da
       8 -27 16 11 -58 -38 -51 -41 -47 -32 11 6 -58 29 54 -38
0000e0 26 d8 0a 2b ed d4 f9 e3 ed a0 db 21 ad d0 b9 df
       38 -40 10 43 -19 -44 -7 -29 -19 -96 -37 33 -83 -48 -71 -33
0000f0 f0 c8 ca f8 dc 40 e9 ae b8 30 b9 ba 3b fa bb b5
       -16 -56 -54 -8 -36 64 -23 -82 -72 48 -71 -70 59 -6 -69 -75

tfl.pseudo_qconst5 i1 [64, 3, 3, 32]
000000 f8 09 ce 1d 11 33 20 f7 f3 0d f6 0e 17 26 e3 00
       -8 9 -50 29 17 51 32 -9 -13 13 -10 14 23 38 -29 0
000010 10 32 0d 07 eb 01 05 2e 12 cf 1d ef fa c1 fb 18
       16 50 13 7 -21 1 5 46 18 -49 29 -17 -6 -63 -5 24
000020 f6 05 d9 2d d8 2d 11 ff 0c 09 eb 18 17 22 e6 0e
       -10 5 -39 45 -40 45 17 -1 12 9 -21 24 23 34 -26 14
000030 08 16 26 0e 06 ff ff 26 f3 f3 1e e2 e3 e9 05 f0
       8 22 38 14 6 -1 -1 38 -13 -13 30 -30 -29 -23 5 -16
000040 e7 0f b2 fa e1 1d ff fb 12 05 07 06 d4 3e a9 e5
       -25 15 -78 -6 -31 29 -1 -5 18 5 7 6 -44 62 -87 -27
000050 e4 24 26 1d bc fc fa 0b ff 1a af 03 0b e3 f3 08
       -28 36 38 29 -68 -4 -6 11 -1 26 -81 3 11 -29 -13 8
000060 e3 0f a9 09 0d 21 28 fc ea 05 fb fc 26 42 da f1
       -29 15 -87 9 13 33 40 -4 -22 5 -5 -4 38 66 -38 -15
000070 fe 2e fd e8 cd 12 c9 3a 09 dc 28 ed f4 a7 fb 15
       -2 46 -3 -24 -51 18 -55 58 9 -36 40 -19 -12 -89 -5 21
000080 f3 19 94 3a f7 0e 0e 02 04 f3 f1 f5 fa 2e ca 09
       -13 25 -108 58 -9 14 14 2 4 -13 -15 -11 -6 46 -54 9
000090 04 33 03 04 2d fa e3 15 f3 f6 1d f9 eb af 07 00
       4 51 3 4 45 -6 -29 21 -13 -10 29 -7 -21 -81 7 0
0000a0 f0 f8 81 fa cd 17 e0 fe 0d e8 f8 ca 10 47 83 00
       -16 -8 -127 -6 -51 23 -32 -2 13 -24 -8 -54 16 71 -125 0
0000b0 e2 15 fc 19 e6 09 07 31 0e 14 cf 0d e9 08 d4 0e
       -30 21 -4 25 -26 9 7 49 14 20 -49 13 -23 8 -44 14
0000c0 fa 15 b7 fb 20 e1 0f 01 e1 ef e4 eb 27 1f dd e4
       -6 21 -73 -5 32 -31 15 1 -31 -17 -28 -21 39 31 -35 -28
0000d0 11 24 f2 fb af f2 a6 16 f0 db 12 e8 e1 8a f3 fa
       17 36 -14 -5 -81 -14 -90 22 -16 -37 18 -24 -31 -118 -13 -6
0000e0 fd f5 97 22 ed 02 28 07 07 cc fc f0 0e 16 e3 17
       -3 -11 -105 34 -19 2 40 7 7 -52 -4 -16 14 22 -29 23
0000f0 15 fe 14 0a ea fe d0 2b e9 f3 24 db eb e6 ee ff
       21 -2 20 10 -22 -2 -48 43 -23 -13 36 -37 -21 -26 -18 -1

tfl.pseudo_qconst7 i1 [32, 3, 3, 16]
000000 e7 ef ec 33 cb 0a db d8 d5 dc de e6 fe 31 ce 0c
       -25 -17 -20 51 -53 10 -37 -40 -43 -36 -34 -26 -2 49 -50 12
000010 f1 37 ea 22 2e 01 da cc 20 13 2e e5 e1 0a f8 f5
       -15 55 -22 34 46 1 -38 -52 32 19 46 -27 -31 10 -8 -11
000020 15 02 12 e9 7f 40 2a 00 30 18 5e 28 f7 e9 ff e8
       21 2 18 -23 127 64 42 0 48 24 94 40 -9 -23 -1 -24
000030 19 0c f4 fe e5 31 4e f8 03 fd 16 dd fc 18 60 0a
       25 12 -12 -2 -27 49 78 -8 3 -3 22 -35 -4 24 96 10
000040 f6 4b 26 0b 25 1a 1d ee 10 17 17 05 09 1a 04 ea
       -10 75 38 11 37 26 29 -18 16 23 23 5 9 26 4 -22
000050 04 27 22 f3 2f 04 06 02 2a 07 27 03 38 3f 10 2d
       4 39 34 -13 47 4 6 2 42 7 39 3 56 63 16 45
000060 0b 22 30 d2 6a 06 4a de 7a 01 5d 1b bb 15 5f d1
       11 34 48 -46 106 6 74 -34 122 1 93 27 -69 21 95 -47
000070 25 2b 1c 11 64 be df fa 2f e6 37 19 1b 17 e1 df
       37 43 28 17 100 -66 -33 -6 47 -26 55 25 27 23 -31 -33
000080 26 e9 ea 35 0e b4 00 ff 0c 25 03 2f 15 24 d0 f3
       38 -23 -22 53 14 -76 0 -1 12 37 3 47 21 36 -48 -13
000090 11 c4 9f ed 45 f3 8c e8 0e 03 fd 04 ef ee a5 dc
       17 -60 -97 -19 69 -13 -116 -24 14 3 -3 4 -17 -18 -91 -36
0000a0 ea c5 09 0a 4b 03 ea ed 1b d7 2a fd 1c e8 1f ed
       -22 -59 9 10 75 3 -22 -19 27 -41 42 -3 28 -24 31 -19
0000b0 eb dd 2c 00 13 f6 27 e6 0f f1 29 d7 dc d1 31 c5
       -21 -35 44 0 19 -10 39 -26 15 -15 41 -41 -36 -47 49 -59
0000c0 30 e5 a0 e7 1c d9 81 1d e1 f6 f4 0f 0c 0c 86 03
       48 -27 -96 -25 28 -39 -127 29 -31 -10 -12 15 12 12 -122 3
0000d0 fb d1 e4 0a 44 0d dd ff 0f f1 14 fb 26 ce 10 fe
       -5 -47 -28 10 68 13 -35 -1 15 -15 20 -5 38 -50 16 -2
0000e0 fd e1 2a fd 41 fb 27 0b 19 e6 17 10 13 e2 25 db
       -3 -31 42 -3 65 -5 39 11 25 -26 23 16 19 -30 37 -37
0000f0 2b 10 e1 ff 0e d5 b5 2e cc 26 db 19 0f 28 c2 26
       43 16 -31 -1 14 -43 -75 46 -52 38 -37 25 15 40 -62 38

tfl.pseudo_qconst9 i1 [16, 3, 3, 1]
000000 7f d3 31 26 e7 2c 35 5f 9b 6e 61 29 09 c5 30 81
       127 -45 49 38 -25 44 53 95 -101 110 97 41 9 -59 48 -127
000010 d7 b9 e1 e6 55 81 38 5b e6 c7 21 48 4c d7 7e f7
       -41 -71 -31 -26 85 -127 56 91 -26 -57 33 72 76 -41 126 -9
000020 81 46 d2 9b c3 02 ac d2 cc d7 7f 75 0c fd df 5c
       -127 70 -46 -101 -61 2 -84 -46 -52 -41 127 117 12 -3 -33 92
000030 c4 1a 0e 81 e7 f0 9b 1f 7b c3 6b 60 81 df ed ed
       -60 26 14 -127 -25 -16 -101 31 123 -61 107 96 -127 -33 -19 -19
000040 58 7c 28 ef 54 17 7f 58 81 13 d9 99 d7 38 ec 3c
       88 124 40 -17 84 23 127 88 -127 19 -39 -103 -41 56 -20 60
000050 7f da 44 7f 55 70 50 bc 56 72 a9 85 bf 24 dd 7f
       127 -38 68 127 85 112 80 -68 86 114 -87 -123 -65 36 -35 127
000060 36 be 67 81 46 09 61 0d ae 55 04 55 35 31 89 7f
       54 -66 103 -127 70 9 97 13 -82 85 4 85 53 49 -119 127
000070 eb ca 0e 4f a2 01 7f 68 20 fa 55 d8 9d c3 d2 e0
       -21 -54 14 79 -94 1 127 104 32 -6 85 -40 -99 -61 -46 -32
000080 68 13 bd 2c 81 20 44 7f 72 ef 57 3c ee 8d d1 d7
       104 19 -67 44 -127 32 68 127 114 -17 87 60 -18 -115 -47 -41
